Simulated_Roll_Pitch_Yaw/gyro_bias.npy (npy, 480128 bytes, 1 tensors)

array f8 [20000, 1, 3]
0	0x0000000000000000	0.0
1	0x0000000000000000	0.0
2	0x0000000000000000	0.0
3	0x0000000000000000	0.0
4	0x0000000000000000	0.0
5	0x0000000000000000	0.0
6	0xbee5893439f569cf	-1.0269142704789992e-05
7	0x3ef4e243007a9d98	1.9916376941123826e-05
8	0x3f0cb057104c11a9	5.471959778982915e-05
9	0xbef58283d467016c	-2.051336675790284e-05
10	0x3f04dd1f5ca2a1e2	3.979446371832667e-05
11	0x3f1ca916c0a157b4	0.00010933114404684704
12	0xbf001d63232420d4	-3.073653023660949e-05
13	0x3f0f440761d807b8	5.9634661948151436e-05
14	0x3f257962b98e1f60	0.00016383485924742047
15	0xbf156ef6281ec900	-8.176209851632268e-05
16	0x3f2392404cd7ba63	0.00014931712068695914
17	0x3f3b8bbabe981c8d	0.00042031583015540095
18	0xbf1814cd9d96f3fd	-9.186272600110453e-05
19	0x3f2624aa8a90b662	0.00016893941691036295
20	0x3f3f13ca4f26cf5e	0.00047420205296621286
21	0xbf1acb435fd99bf0	-0.00010221098633565718
22	0x3f28821cf0a749b6	0.00018698313972593882
23	0x3f41535c7afcc652	0.0005287362637089266
24	0xbf1d8072fdeb160e	-0.00011254026274361997
25	0x3f2c7b04cdaecf73	0.00021728929172370632
26	0x3f44244a427efbd4	0.000614677676814663
27	0xbf2011072ad116e2	-0.0001225777863586497
28	0x3f2f090f27c9f852	0.00023678121569398414
29	0x3f45e517bed9ed4d	0.0006681791252981878
30	0xbf216117662b689c	-0.00013259325631659747
31	0x3f30caec430ccea8	0.00025623577225817673
32	0x3f47a5014d14d320	0.0007215744355223187
33	0xbf0c9704e0e6379a	-5.4530941372295946e-05
34	0x3f1b7d3907da3246	0.00010486279094319107
35	0x3f34071c4e97ae91	0.00030559960450091914
36	0xbf1482daa6ade3d4	-7.824382343625476e-05
37	0x3f23efe295ce99d4	0.00015210762913149425
38	0x3f3c8ee719aa493c	0.0004357637605291347
39	0xbf0f11d6c1f58d91	-5.926071775766006e-05
40	0x3f1e3b834f2e4b1a	0.0001153277296864038
41	0x3f35ee3b47f7ce74	0.00033463427823152776
42	0xbf123104c39ab290	-6.939498498565789e-05
43	0x3f21b2cead6f3546	0.00013502858084139309
44	0x3f39794558e20c80	0.0003886980347333549
45	0xbef660d47342c3d6	-2.134155438743623e-05
46	0x3f05f4303d22683a	4.1873666888750776e-05
47	0x3f216338daa96138	0.00013265675564145553
48	0xbf008a6126433a42	-3.154858566888466e-05
49	0x3f102e103595afde	6.172155317124515e-05
50	0x3f2886ecd8def7b3	0.0001871265525874001
51	0xbf05e145c07524de	-4.173273196756711e-05
52	0x3f155f4cac0e0868	8.152871579450579e-05
53	0x3f2fa6fb40fbdb71	0.0002414876657821047
54	0xbf0b3676f8f00310	-5.190420699108776e-05
55	0x3f1a8efbdfcb80be	0.00010131275480374215
56	0x3f33625e251b70bc	0.0002957801672047835
57	0xbf1043ddb9a3b02c	-6.204644015256393e-05
58	0x3f1fbb161cfd0ad4	0.00012104341953737423
59	0x3f36eec2c8368e26	0.0003499246160691714
60	0xbf12eb205ffe99e2	-7.21682081335838e-05
61	0x3f2272446843bea5	0.00014073452997064476
62	0x3f3a795a1639af12	0.0004039616526145688
63	0xbf1713af32867010	-8.803135700080644e-05
64	0x3f241ba5baa498b5	0.00015341184673295862
65	0x3f3ce13ad784d777	0.0004406708390151041
66	0xbf10a21f242ddb13	-6.345095702707205e-05
67	0x3f1cd74209e4adb1	0.0001100191170492679
68	0x3f3424764a301630	0.0003073490899513113
69	0xbee3682ab77edaac	-9.25393190685566e-06
70	0x3ee3c182fa9bc690	9.42034951687272e-06
71	0x3ede54fab471d680	7.231700528289469e-06
72	0xbef46c17066018b0	-1.9476152736807347e-05
73	0x3efec244596b2635	2.933393042318083e-05
74	0x3f103dd57f39203c	6.195655424179406e-05
75	0xbf00432119d7e376	-3.1017730389443674e-05
76	0x3f04dccc41f3bf59	3.979204506687648e-05
77	0x3f1f6439ed71a834	0.00011974910317894065
78	0xbf05993105cc5c68	-4.119568686727291e-05
79	0x3f0f45c37f6ace4b	5.9647587410974015e-05
80	0x3f26d6f5b1faf735	0.00017425297936840006
81	0xbf182cebac8c2c18	-9.22221035006141e-05
82	0x3f24ce05913a274b	0.0001587278171551416
83	0x3f3d437fa27d9c72	0.0004465281112885972
84	0xbf1acfcd5a513681	-0.00010227862237962607
85	0x3f276050fb7261cf	0.00017834652473848334
86	0x3f40657d5fa0b66d	0.0005003797698514674
87	0xbf1d71408f02dece	-0.0001123138097253132
88	0x3f29f1602ae60684	0.00019792841835557598
89	0x3f4228572d2e349b	0.0005541253725468599
90	0xbf200896225e6b2d	-0.00012232620900650676
91	0x3f2c8114100c7918	0.0002174698820675634
92	0x3f43ea483bbd14e1	0.0006077625944064491
93	0xbf24deb85bfd4cac	-0.00015922546844624374
94	0x3f32f352a9e1abaa	0.00028916137842454703
95	0x3f4a5ef5ae1f81b2	0.0008047771082111881
96	0xbf1a7ae5a4926b26	-0.00010101343754557717
97	0x3f271da822858155	0.0001763599150406229
98	0x3f4034a587f7acce	0.0004945572144924527
99	0xbf14884fa3f791d4	-7.832513892187056e-05
100	0x3f215d1601831116	0.0001324738848379545
101	0x3f387f48500be37e	0.00037379756399463077
102	0xbf172c72ad4cf65b	-8.840036327925056e-05
103	0x3f23f1348b42d09f	0.0001521469727144885
104	0x3f3c094aa4a1e84d	0.0004277999147529507
105	0xbf19403fb93be3f1	-9.632481515699211e-05
106	0x3f25f9841e7bb001	0.00016765344411540098
107	0x3f3ed32d538426d6	0.00047035080525912926
108	0xbf1b678f944ec3c1	-0.00010454000319161297
109	0x3f28d7c9e71c1f74	0.000189536472639636
110	0x3f416cc03b7ff0bb	0.0005317629465930932
111	0xbf1a0a6b7e324863	-9.933739743164939e-05
112	0x3f2738c7d8f2d8a4	0.0001771682695783139
113	0x3f40866886e8e456	0.0005043039689730615
114	0xbf1647c1c32ca333	-8.499260074458226e-05
115	0x3f2397f72e224d39	0.00014948742233809336
116	0x3f3c0db407d412bf	0.00042806287076783614
117	0xbf260ddbb93464e8	-0.00016825968905535079
118	0x3f3463d41fd13730	0.0003111260301168371
119	0x3f4c977bab9ad6c6	0.0008725503787078918
120	0xbf27756883834607	-0.00017897511293667198
121	0x3f3543a7b6a360ec	0.0003244671303384145
122	0x3f4e650ff70f0671	0.0009275749163110814
123	0xbf2ee20b91806332	-0.0002356185075320871
124	0x3f3c79a3a142821a	0.00043449635382766946
125	0x3f542771080476b2	0.0012301067182031553
126	0xbf3014642b84df0e	-0.0002453560405401991
127	0x3f3db979b5bcef7a	0.000453560079893604
128	0x3f5502ccef015830	0.0012824059777094658
129	0xbf30b76dcb7c6431	-0.00025507383860340615
130	0x3f3ef8acffe2a4f3	0.0004725859033763567
131	0x3f55ddba5951d180	0.0013346023381731464
132	0xbf301006787245b4	-0.00024509580584560907
133	0x3f3d94beca75ac2f	0.00045137079219753883
134	0x3f5509d7cf18a301	0.0012840850362271785
135	0xbf26e90edfdfbdb4	-0.00017479235242444174
136	0x3f34a7b8f87f1fb4	0.0003151728237722432
137	0x3f4dcace6ccbb94b	0.0009091861662378435
138	0xbf2fc227833f4952	-0.00024229748089383635
139	0x3f3d0861e14f6a10	0.00044300450946158174
140	0x3f549c654d9b0359	0.0012579907692471164
141	0xbf324002ef8f984f	-0.0002784735839312978
142	0x3f40d28518cae395	0.0005133771788542347
143	0x3f57c80347de9348	0.0014514953649975171
144	0xbf32e1b067e22345	-0.000288110320874103
145	0x3f4171172058e808	0.000532280246893225
146	0x3f58a187e2542a2c	0.0015033556931621879
147	0xbf3076670f6c7e01	-0.0002511979686676547
148	0x3f3e34609bb345c0	0.0004608856067536936
149	0x3f5568b393d4a186	0.0013067010580219709
150	0xbf3191022e8e87ca	-0.000268042595559345
151	0x3f402e1396a673a9	0.0004937739989149165
152	0x3f56e3bd2e86d5aa	0.0013970706441857974
153	0xbf3232ea6929f20d	-0.0002776930133803486
154	0x3f40cceedca62605	0.0005127111738129636
155	0x3f57bdb540f4248e	0.0014490385108863221
156	0xbf35432bacc2fccc	-0.0003244382503559517
157	0x3f43c75387667f7c	0.0006035955291743135
158	0x3f5bd6823304b449	0.0016990920522162048
159	0xbf35e32825f3e6a7	-0.00033397417242007416
160	0x3f4464502e6f7d20	0.0006223098288237507
161	0x3f5cadf2e3c4bcb3	0.001750456997864619
162	0xbf36865a90504ad7	-0.00034370146778532395
163	0x3f44f3f2e5f82a41	0.0006394325282042605
164	0x3f5d872696d31a1b	0.0018022419783833069
165	0xbf3968dbb4c48fc9	-0.00038771976393747444
166	0x3f47c218425f0f04	0.00072504219564748
167	0x3f60b19ff9a953b0	0.002037823154106687
168	0xbf3a068820d3e2ad	-0.00039711783831778807
169	0x3f485d0217466b27	0.0007435093125879075
170	0x3f611bed666baac7	0.0020885121078796118
171	0xbf3c01ab0e94eef8	-0.000427345525696884
172	0x3f4a4adafc662bb0	0.0008023804919486868
173	0x3f626f9d789d029b	0.0022504878624263875
174	0xbf3d9db26b151b1a	-0.0004519043532877229
175	0x3f4bdc7a2a3f13cf	0.0008502575405989701
176	0x3f6383d3518ecaed	0.002382195216762076
177	0xbf3e39e01d0d307b	-0.00046121331711358016
178	0x3f4c7608b7b1623f	0.000868562943092739
179	0x3f63ed34a8c5e247	0.0024324444295269784
180	0xbf3adbfe205008cf	-0.0004098411012024684
181	0x3f49340200f5375a	0.0007691392692465813
182	0x3f61ae6c39ef6ec4	0.0021583665652381307
183	0xbf381aeeb698bd44	-0.00036781623802802457
184	0x3f468a2d57ea0805	0.0006878587153809074
185	0x3f5fb0cc45298ef4	0.0019342417550882148
186	0xbf38adc8a52a85b8	-0.00037656925739256884
187	0x3f472a41706a8a20	0.00070694155950363
188	0x3f60471f0f9cd096	0.0019870382938283566
189	0xbf394b898944f072	-0.0003859720975645304
190	0x3f47c5693ec949d6	0.0007254375355592545
191	0x3f60b19dc1f70c27	0.0020378190235717133
192	0xbf39b54c39b02475	-0.00039227591486274495
193	0x3f4877f5baa5af61	0.0007467222069812257
194	0x3f6130692ac5f0e9	0.002098279385050462
195	0xbf3a3abf31dbe508	-0.0004002301010213737
196	0x3f48fb6dda95d835	0.0007623945613619622
197	0x3f618a973b02a5a2	0.0021412805291062967
198	0xbf3a9aa48878f3e1	-0.000405945939266959
199	0x3f49be4c613edfab	0.0007856247852862005
200	0x3f621652c77179bc	0.0022079102305234393
201	0xbf4027e3113e5efc	-0.000493036148770692
202	0x3f4f48ebd4163140	0.0009547378069086135
203	0x3f65e7d2f97e6128	0.002674018916831628
204	0xbf3e435c7869c2a6	-0.00046177871300926777
205	0x3f4d4e32c140013f	0.0008943317247940631
206	0x3f648a0f427e94fb	0.002507238201320148
207	0xbf3d090ecc267815	-0.0004430447699180784
208	0x3f4c1f47cb592712	0.0008582211073157894
209	0x3f63b8c3e2576a26	0.0024074388372643694
210	0xbf3da44c95b13d45	-0.00045229787582897293
211	0x3f4cb7ce0a86e3e9	0.0008764034328613254
212	0x3f64217ed2f6fa0e	0.0024573781044801074
213	0xbf3e3f28d50a01bf	-0.0004615282714795186
214	0x3f4d5005ac74aa29	0.0008945491507906289
215	0x3f648a03602a9c08	0.0025072160654704446
216	0xbf3ec4f1f5526653	-0.00046950251755504163
217	0x3f4decfdca0d32a5	0.000913261337794309
218	0x3f64f72b1e96c087	0.0025592653443809485
219	0xbf407097e06679f5	-0.0005017034134658359
220	0x3f4f5eb02e3492a0	0.000957332635526404
221	0x3f65e92c8155c0c5	0.0026746625177836735
222	0xbf40bd1705840257	-0.0005108225259676341
223	0x3f4ff57d2dc22d7a	0.0009753094887100932
224	0x3f6650c5aba47af9	0.0027240620376142136
225	0xbf410965b50867fc	-0.0005199190728177867
226	0x3f5045fb989f1c3e	0.0009932476991581086
227	0x3f66b828ef74aef0	0.0027733611601855543
228	0xbf436bf44f67a183	-0.0005927031441475414
229	0x3f52974b7add03ac	0.0011347043141116493
230	0x3f69ea8c6b6c206b	0.003163599259441032
231	0xbf42f17c9d89d678	-0.000578103873592097
232	0x3f5221b87c23ccfa	0.0011066724405822113
233	0x3f6947da40e01234	0.0030860197794047254
234	0xbf4321f4937eda27	-0.00058388178057706
235	0x3f52707751cca5b8	0.0011254468183302512
236	0x3f69b76201c89b6b	0.003139201564653351
237	0xbf436cf14165ef84	-0.0005928209309753328
238	0x3f52ba692b39b712	0.0011430766143364951
239	0x3f6a1d0410e7c1cc	0.00318766397617074
240	0xbf43b7c351358a20	-0.000601740236032381
241	0x3f530433c7a7bec4	0.0011606698668592966
242	0x3f6a8270f9a3feb0	0.0032360273881975807
243	0xbf44027e36eefc66	-0.0006106487543248273
244	0x3f534d8109b56dfb	0.0011781463752730248
245	0x3f6ae7b752e1a1bd	0.0032843189756485967
246	0xbf444d25c7f09682	-0.0006195482709514118
247	0x3f53972f766cd701	0.0011957133771835495
248	0x3f6b4cff30754a41	0.0033326133886160407
249	0xbf458aa99505e841	-0.0006573989904119574
250	0x3f54ea16ec43622c	0.0012765144211269825
251	0x3f6d03bf2028976e	0.0035418255731824366
252	0xbf45d44c4b4141bd	-0.0006661770371554837
253	0x3f5532bc658e5275	0.001293834668307484
254	0x3f6d67aa71f84373	0.003589470768709574
255	0xbf461dc356ca57d4	-0.0006749347499688204
