Measured_Roll_Pitch_Yow/gyro_bias.npy (npy, 481040 bytes, 1 tensors)

array f8 [20038, 1, 3]
00000000: 0000 0000 0000 0000 0000 0000 0000 0000
00000010: 0000 0000 0000 0000 0000 0000 0000 0000
00000020: 0000 0000 0000 0000 0000 0000 0000 0000
00000030: c944 6382 a362 95be 421e f2ad 2648 a2be
00000040: e23a 8ab9 889d da3e 53f4 eb02 f685 80be
00000050: 0c30 1e35 5eab b6be ac00 58ca 2459 ea3e
00000060: 317f a67d 6171 a63e 532c 5200 247f c1be
00000070: 029f e3bd 4b45 f43e d65a fe43 9c0e c73e
00000080: 9036 3ac3 a24a c8be f881 98fd 82f9 003f
00000090: 121d a52c 45ad d03e 644e f8c4 87bc d0be
000000a0: 5c8d f3df 555f 083f 1b23 0b7e 496f cd3e
000000b0: bdb5 ea7b 626a d0be c32d b374 9b4d 083f
000000c0: dbd6 abd2 fb4a c63e 2b1c b961 2ca3 cdbe
000000d0: 863d 799b e9fa 073f 6f39 b27e f90c c93e
000000e0: c0c8 c133 d34b cfbe efa6 ccbd 453c 0d3f
000000f0: 42ad 7581 76d5 c33e 50c3 379b fc9e d1be
00000100: a7d6 7ba3 34f9 0e3f 7253 4d4b 3892 c23e
00000110: 6c22 f708 522c d2be f6be 48aa 41f6 0f3f
00000120: c405 9612 36a3 c53e b91d 12e7 4da4 d0be
00000130: fd65 4b5d 9888 123f 7824 8cd9 3961 c33e
00000140: 387d e63e b84d d1be ac07 dcd6 63f9 143f
00000150: a32a deb7 e180 c33e 12ca 5c0c 68ba d2be
00000160: 1894 63c5 ff8d 163f 1335 7137 94ad c33e
00000170: 20c8 7b98 c734 d3be 2b39 facc 224a 193f
00000180: 2ba3 f3a1 7201 c93e 9464 fa30 daa2 d3be
00000190: 0c6d 2262 d7c6 1c3f 96e0 1f5f 1b9e cf3e
000001a0: 6fab 5e66 5be0 d1be a101 7205 3261 1e3f
000001b0: bcd2 a851 bb2e d13e f264 f9b8 d77d d1be
000001c0: 6419 ed9a 2a47 203f 20c6 919d 2783 d33e
000001d0: d7fb 6fa0 0119 d0be edd7 ad60 00d9 213f
000001e0: 6535 78cc 6c49 d33e f8df 4736 a407 d3be
000001f0: cd88 3735 8fd6 223f deea 17ef 83fb d03e
00000200: 4060 1e12 165a d4be 6c1c d3f1 cd43 233f
00000210: 5e3e 2f94 28f1 cf3e 0055 c403 0e64 d7be
00000220: 9a42 79b4 d6d5 243f e1ab 13bb c914 d53e
00000230: 91ce a114 e3de d6be dcd0 70c0 fbca 263f
00000240: e4af e823 46c4 d13e aad2 0a2c 9ec3 d6be
00000250: 3ab2 cc98 a799 273f c0a2 31be 7044 ce3e
00000260: d56e 0eea d644 d5be ee3b 3d10 c586 283f
00000270: 2ac3 8d67 f985 c93e 85ce 2397 4728 d5be
00000280: 3d2f a71f 6515 2a3f 0a59 30df 7eba be3e
00000290: f2b1 b5a9 2bf0 d6be 5c51 869a b212 2b3f
000002a0: dbab a998 e79e b93e 4e0d 7711 d5f2 d3be
000002b0: 4fd4 5fa5 36bc 2b3f f030 7edb 7da9 943e
000002c0: 2a99 7be5 7348 d3be c372 57e6 6555 2c3f
000002d0: bec4 1f3a 86f4 b3be e986 45b7 84c7 d0be
000002e0: 1d14 8857 cbf2 2c3f fe72 a6d1 ab74 b8be
000002f0: f8fa e744 e03d c7be ff46 f200 f9be 2d3f
00000300: 9dd8 a838 4509 c0be 1284 3baa f404 babe
00000310: 5d42 b7a9 3fc8 2e3f cc45 4677 e518 c0be
00000320: f970 4913 def7 b0be 75cc e404 af5b 303f
00000330: 42b4 adc4 a170 bfbe d81f 6113 e5e5 a33e
00000340: fc31 546a afcb 303f f3d8 567b 3466 c6be
00000350: 7a15 19d5 0d72 bc3e 965e 81bb ca05 313f
00000360: 7804 f5f0 cd67 d2be 5e0a a205 31c5 c43e
00000370: fea7 ab5a 5b5a 313f 4633 0ca5 e646 d4be
00000380: 1c82 c92e 0094 c83e f286 373c 8e0f 323f
00000390: aea7 bc61 3260 dcbe daba d671 2e8d c83e
000003a0: c9c3 5812 6245 323f 4ea5 681c 971c e1be
000003b0: 6bca 1e97 fd9d c73e d109 c1e9 16fb 323f
000003c0: d8ee 2f8d 0975 e5be 9115 cc1c 24dd ce3e
000003d0: 42fa 482a 556a 333f 3409 4b27 a9ea e7be
000003e0: 6d1a f54e b3a7 d33e 196a 2aa9 0fa7 333f
000003f0: 0fe2 e07b 0f8f e9be d126 5f0d 088c d73e
00000400: 27b1 aac3 a243 343f 0ddd 7843 80cb e9be
00000410: 1cdc 85d8 e6b5 d93e cc68 c00b 0a5e 353f
00000420: 6a81 106f 5ef9 ebbe c61c c67b bea7 db3e
00000430: 36bf e915 f9d1 353f 145e 309d 0fbb efbe
00000440: fbd3 23f9 973d e03e 624b e7cd 1002 363f
00000450: 15f7 8cb6 c851 f2be cc5d c37d 0e83 e23e
00000460: bdbf b5bd a15d 363f 2824 b4c1 838a f4be
00000470: 2bc7 f139 49ee e33e 02f1 1b8a 5bb2 363f
00000480: 3771 851c c9e7 f5be 0007 a5cf f199 e63e
00000490: af82 6162 3a0a 373f b527 3640 69e1 f6be
000004a0: 8b6b ffa7 d7aa eb3e 4e5f 508c 2788 373f
000004b0: e289 666e 2f4c f7be 6246 28bc 0759 ef3e
000004c0: 4a5e 3be4 e94d 383f c690 d6bb f41a f8be
000004d0: b4de b950 bac7 f03e 324f 8bd7 a407 393f
000004e0: 4cf5 663b dde6 f9be eeea a837 9f6e f13e
000004f0: ab18 3e1d 5971 393f 1e4c fee9 794a fbbe
00000500: 844d ff85 91f7 f13e bf7d 494b 9a5f 3a3f
00000510: e3b8 695a bdd7 fcbe 7267 7cfc 27f7 f23e
00000520: 3848 e471 1ccf 3a3f 8c67 8751 a744 ffbe
00000530: 5bd7 d1ae aee2 f33e 3d67 3d68 ad07 3b3f
00000540: 13bc d662 1034 00bf 042d 6adb a35e f53e
00000550: 824a 13a2 3ae1 3b3f cc88 93aa fedf 00bf
00000560: 3d1e b5e5 3755 f63e 3459 64aa 3d97 3c3f
00000570: dab3 48b0 a305 02bf 7ea7 df32 42eb f73e
00000580: d2ad 8c97 a9c4 3c3f 1030 87d4 f9ea 02bf
00000590: 3c67 4609 533a f93e 70f2 cc0c 0d6e 3d3f
000005a0: 8db3 a37c f6c4 03bf d3f4 cafc 0596 fa3e
000005b0: cf5b b913 ec11 3e3f 3681 82f6 59b5 04bf
000005c0: 935e 24c2 c16d fc3e ecef 9a67 4453 3e3f
000005d0: 5c08 2431 4f1e 05bf d58a 9a97 4820 fe3e
000005e0: 6d46 8120 4f17 3f3f 7df5 82ac 498b 05bf
000005f0: cb39 778f a731 003f afb2 3f99 430c 403f
00000600: 9abb e777 d97c 06bf 03e8 ba6c 25fb 003f
00000610: ad14 4c04 6b42 403f b303 37d3 fcaa 07bf
00000620: 0b41 d185 2c2f 023f d471 668e 1666 403f
00000630: 0c40 6c78 e923 09bf 9024 6576 c782 033f
00000640: 631d 6ef7 0b6e 403f c5ae 78ee c43b 0abf
00000650: 8784 6950 8c99 043f 62e0 eaea 35cd 403f
00000660: 0626 3a6e 1bbb 0bbf ac5e 0eab 654b 053f
00000670: 26d8 2ba3 8104 413f 2b72 8e16 dae2 0cbf
00000680: c4f3 cc1d 49cf 053f c0cb ee61 a057 413f
00000690: abe6 0deb 89a4 0dbf 0d7e c155 85ba 063f
000006a0: 85f6 3d75 91b4 413f 2718 6b3c a198 0ebf
000006b0: 61bb 485d 6a91 073f f3de 9abd 700b 423f
000006c0: cdf3 5761 21e8 0fbf 69be a75a 3aaa 083f
000006d0: 279d 50df 6f0f 423f 65e0 03cd 6123 10bf
000006e0: 92a1 1989 6c27 0a3f 8c67 abb0 4961 423f
000006f0: a589 4b17 1dac 10bf 28df 0051 4f6c 0b3f
00000700: a66e d16d 6098 423f 990f 26b9 9741 11bf
00000710: 5531 56ad b74c 0c3f 2ead 9112 e4cf 423f
00000720: c8d3 cc5d 5de2 11bf 1241 5de5 b5da 0c3f
00000730: e428 5e4f dd19 433f 36ec 97e1 6b9d 12bf
00000740: 1d01 6069 f563 0d3f e704 e8f0 297d 433f
00000750: a86d 9d20 6575 13bf 534d ffd1 edfd 0d3f
00000760: 9e08 da68 5bb2 433f 9ed9 3b7b 9e7e 14bf
00000770: ddf6 67ef 6ffb 0e3f dbc3 cc0a 1ab6 433f
00000780: 5eb2 3fb7 b027 15bf e7e2 bfce b127 103f
00000790: b12a 3601 38ed 433f 50cb d867 161a 16bf
000007a0: ef83 2248 e5ce 103f e84d 9750 a2ff 433f
000007b0: f7f7 960c 8d0f 17bf dd3b 53a9 4336 113f
000007c0: 37ee ce8d c51d 443f 1d73 2945 6e11 18bf
000007d0: 339f 3a82 0392 113f 0771 4372 435b 443f
000007e0: 936b e7d1 c7b8 18bf a89a 41ae cfd7 113f
000007f0: ef7e 4989 53c5 443f d47f bb86 e158 19bf
0.0 0.0 0.0 0.0 0.0 0.0 -3.1866591355701986e-07 -5.448412955391543e-07
6.345598102654449e-06 -1.231080672611004e-07 -1.3512019063381353e-06 1.2563809216992475e-05 6.688503575886853e-07 -2.0857623917506546e-06 1.9331633546309207e-05 2.748617163160628e-06
-2.895777947936971e-06 3.237658502209037e-05 3.976067726014418e-06 -3.990279835902955e-06 4.6486671630120295e-05 3.5088914816832387e-06 -3.913775741421483e-06 4.635458625442846e-05
2.6575213686274934e-06 -3.533052916701863e-06 4.573846257171624e-05 2.9862740028092735e-06 -3.730796747141834e-06 5.5762174929375556e-05 2.3643779162773268e-06 -4.201183787953141e-06
5.907718553814267e-05 2.2138561583208693e-06 -4.332811058778944e-06 6.096256155207855e-05 2.579396227887013e-06 -3.9677175759431695e-06 7.069997748079117e-05 2.3102508744971677e-06
-4.125497964940169e-06 8.001014586159091e-05 2.324991725315599e-06 -4.465138948183641e-06 8.603929140667298e-05 2.3458055085414465e-06 -4.579107901513487e-06 9.647214323591352e-05
2.9809064155849434e-06 -4.6816210354179646e-06 0.00010977449031417482 3.7691122480831088e-06 -4.262064612274278e-06 0.00011588924222572526 4.096638145646602e-06 -4.170315960638455e-06
0.0001241912372853079 4.6521003805740605e-06 -3.837986247922295e-06 0.0001361668549539336 4.5983353582750615e-06 -4.537069660852371e-06 0.00014372347014474652 4.048939204799176e-06
-4.852270906761989e-06 0.00014697922680382018 3.8077861588060486e-06 -5.576810562031966e-06 0.00015896078024237454 5.026150504887161e-06 -5.452788466187403e-06 0.0001738960565674856
4.235910238164335e-06 -5.427392068814313e-06 0.0001800553403880233 3.6081487322824274e-06 -5.070901949812575e-06 0.0001871219211530823 3.0426188541366572e-06 -5.044303508439469e-06
0.00019900187892429337 1.831561232239873e-06 -5.468885002951346e-06 0.0002065508863437021 1.5271139967253282e-06 -4.756108203665786e-06 0.00021160285058355536 3.07888935229647e-07
-4.597429857011631e-06 0.0002161681069726887 -1.1894210065722738e-06 -4.000513275621953e-06 0.00022085888100789675 -1.4576760976943324e-06 -2.7706269414279435e-06 0.000226943870505418
-1.9116654972574683e-06 -1.5508746082292787e-06 0.00023484971175815025 -1.918941899777611e-06 -1.011385461733312e-06 0.0002496053974880349 -1.8739681475158383e-06 5.930074056326478e-07
0.00025628120995760373 -2.6701972852496275e-06 1.6954853275947242e-06 0.000259744639611517 -4.388209858875306e-06 2.4760102351206874e-06 0.0002647851021452262 -4.8344032428482446e-06
2.929941152182931e-06 0.0002755853895149838 -6.765310469872554e-06 2.9267656731149474e-06 0.00027879375770384053 -8.159485230657206e-06 2.8153837598685254e-06 0.0002896243038358589
-1.0231579301126834e-05 3.679255519253417e-06 0.00029625491359644787 -1.1404344357206048e-05 4.686136193149572e-06 0.000299874614179936 -1.2187399871619658e-05 5.614041773635649e-06
0.00030920718897210975 -1.2299979160619698e-05 6.129873675645425e-06 0.00032603974591584035 -1.3339089010300845e-05 6.593525480608897e-06 0.00033294993583065106 -1.5130380154145528e-05
7.74412163593619e-06 0.0003358164812229861 -1.7470806969336375e-05 8.82718080001581e-06 0.0003412742496129403 -1.958949370098689e-05 9.503748343162366e-06 0.0003463242993431288
-2.0890629259682713e-05 1.0777161595701672e-05 0.00035156178853949343 -2.1820556879194065e-05 1.3192822052523488e-05 0.0003590675881368536 -2.2218321555586807e-05 1.4947783602034518e-05
0.00037085495226338706 -2.2988602486188175e-05 1.6002833076871322e-05 0.0003819253393377741 -2.4701894028690983e-05 1.662456223015367e-05 0.00038822579994536127 -2.602665210777951e-05
1.7134727727197773e-05 0.0004024268812709806 -2.7506573724905218e-05 1.8086866275891308e-05 0.0004090732999354504 -2.981965835311506e-05 1.8964269589769874e-05 0.0004124449117078771
-3.090548521399879e-05 2.0379722367053397e-05 0.00042541200134597207 -3.2186469363330855e-05 2.1298298049003543e-05 0.0004362607527509555 -3.437429225914392e-05 2.2810915815719538e-05
0.0004389680903382462 -3.608298226573392e-05 2.405913308365443e-05 0.000449064432178215 -3.7707111532592816e-05 2.5354412900514843e-05 0.0004588319168070094 -3.9498146010121684e-05
2.7111757057245318e-05 0.00046272678410352766 -4.028014349623306e-05 2.873049513730626e-05 0.0004744117909512905 -4.109209618395179e-05 3.088753322410021e-05 0.0004897432395388391
-4.28918710787464e-05 3.238876305773632e-05 0.0004961988966846375 -4.514297543379373e-05 3.468374846049741e-05 0.0005004511011069087 -4.795128102419452e-05 3.7214004623261775e-05
0.0005013998441975417 -5.0036380170174285e-05 3.929099516564957e-05 0.0005127442617185558 -5.289246999235987e-05 4.0616073767538646e-05 0.0005193360323960713 -5.50959401330635e-05
4.159871944018443e-05 0.0005292447202606063 -5.653901951681075e-05 4.3351358471662665e-05 0.0005403242343928338 -5.835763982058066e-05 4.495244835244525e-05 0.0005506802073886582
-6.085731380876085e-05 4.704466421745214e-05 0.0005511566402035859 -6.15623896499398e-05 4.9884795896573634e-05 0.0005609140219704364 -6.359984929419375e-05 5.2305384202032325e-05
0.0005674811215032507 -6.582726044795788e-05 5.397735155118997e-05 0.0005740989337374208 -6.82229505855745e-05 5.503528215789108e-05 0.0005829172721274725 -7.101031260241326e-05
5.6057860248872315e-05 0.0005947546758876793 -7.422857029608951e-05 5.720502872432844e-05 0.0006010958038163044 -7.818071645346875e-05 5.909381245670722e-05 0.0006015422019115495
-8.070007407896251e-05 6.162665130194819e-05 0.0006081126652344918 -8.431207421537063e-05 6.411814141184224e-05 0.0006103079369332272 -8.796976467004268e-05 6.565845463345163e-05
0.000613900625118408 -9.181247268359419e-05 6.702562728355399e-05 0.0006212310149993635 -9.430617908583035e-05 6.806569177939903e-05 0.000633874692152118 -9.669186118399449e-05
